GDGassgn3/checkpoint_TaskB.pth (torch, 27024 bytes, 9 tensors)

fc_humor.weight f4 [1, 512]
-0.0107958615 -0.003733862 -0.01918701 -0.011923311 0.048882116 -0.035307657 0.03128709 -0.03655167
-0.022501647 -0.025455827 0.021438025 0.014114261 0.010957447 0.005544616 0.025254156 0.02660423
0.02874884 0.040485926 0.0017989798 -0.004171617 -0.02286444 -0.010572123 0.0013576741 0.01601485
0.015051908 -0.0211429 -0.033834368 -0.02579223 0.024490474 -0.030736065 -0.003268126 -0.007063864
0.044260185 0.013966511 -3.203381e-05 0.0033563422 -0.004267765 0.03968381 0.012109029 -0.0066722115
0.018686282 0.0070351656 -0.010265259 -0.01568864 -0.046889648 0.008579565 0.035965014 0.037344873
-0.03124129 -0.004018081 0.0128239235 -0.011585791 0.019364253 0.0022163878 0.033030797 0.025211753
0.0075270524 -0.029259838 0.009108292 0.015493928 -0.016934868 -0.024953444 0.0054925056 0.023814099
-0.00023539171 0.02350154 0.014105143 -0.013111955 0.014369676 0.02053711 -0.0025111258 0.0019712124
-0.003230723 0.01652153 0.02369542 -0.037852135 0.026354259 0.042480927 -0.04089443 0.023554921
-1.8122166e-05 0.030006839 -0.01403762 0.033998806 -0.039085742 0.024499886 0.013081899 -0.018669738
-0.010595111 -0.00050901214 -0.03238475 0.008705716 -0.039622147 0.046445657 -0.00831914 -0.03086412
-2.1184997e-05 -0.016670458 0.035717484 0.031203333 -0.013396161 0.013907937 0.029546 -0.022979649
0.04075356 0.03653992 -0.013950847 -0.024833495 -0.009164492 0.0334693 -0.022555845 0.012783577
0.0010319749 0.0315486 0.03671013 0.018972497 0.02070322 0.043317113 0.030021416 0.022590917
-0.039987497 0.02371667 0.021881908 0.014205603 -0.0036117283 0.025417874 0.044673175 0.0036575133
-0.0022841613 -0.04365447 -0.00414056 0.01250501 -0.018793488 -0.0221225 0.010931308 -0.019005034
0.017097969 0.041283973 -0.039834715 -0.004273872 -0.0377791 0.008840758 -0.027189236 -0.031889
-0.0032156962 -0.026273353 0.009124369 -0.007140593 0.024698427 0.035518225 -0.0037811468 -0.015476038
-0.040881667 -0.038293906 0.033063374 0.041491576 -0.009914203 0.028070444 0.038801774 0.029592382
0.038822234 0.016492473 0.00797079 0.045562282 0.009115198 0.0090937475 0.013887168 -0.02091508
-0.0048902123 -0.0014889714 0.02074408 -0.034613628 -0.041358285 0.040579535 0.0075053 -0.010940432
0.02646318 -0.01076545 0.04078205 0.013178145 0.036850747 0.034165464 0.012124874 -0.028530454
0.02496551 -0.011393802 0.017745335 -0.004439408 -0.016299644 0.020442314 0.016149927 0.0074857925
-0.034205258 -0.003395947 -0.03977195 0.0070219347 -0.012680838 0.030394128 -0.01770152 0.012871827
-0.030106273 -0.009897064 -0.014439664 0.013799421 -0.0019321031 0.03774245 -0.027523598 0.008184759
-0.013112708 0.02182967 0.019902114 -0.019827593 0.016648551 -0.025734449 -0.0058786757 0.03404926
0.008043019 0.02506637 -0.030386163 0.011576575 0.03238511 -0.025563754 0.01742649 -0.025130363
-0.041080654 -0.022451345 -0.03237319 -0.02630646 -0.029928882 0.011233838 0.00473956 -0.025402948
0.02645775 -0.009173023 -0.039719395 -0.018654343 -0.039194655 0.0013204992 0.03482226 0.004887434
-0.012073406 -0.011913999 0.004079102 -0.019700624 -0.008180057 -0.01270526 0.021950163 0.026818743
-0.0150799705 -0.018729998 0.017615855 -0.041461863 0.039704897 0.00045610138 0.02980079 -0.02910361
00000000: 20e1 30bc cfb3 74bb 142e 9dbc fe59 43bc
00000010: 9d38 483d c39e 10bd e426 003d 34b7 15bd
00000020: 6055 b8bc bd88 d0bc cc9e af3c 803f 673c
00000030: dd86 333c 9caf b53b cee1 ce3c 1df1 d93c
00000040: b082 eb3c 92d4 253d bfcb eb3a 0fb2 88bb
00000050: 354e bbbc b336 2dbc fcf3 b13a 9331 833c
00000060: 479c 763c e033 adbc e895 0abd 3a4a d3bc
00000070: 3fa0 c83c 33ca fbbc 0e2e 56bb fc77 e7bb
00000080: 2b4a 353d cbd3 643c 0b5c 06b8 14f6 5b3b
00000090: 9cd8 8bbb 7e8b 223d f364 463c 91a2 dabb
000000a0: f913 993c 3f87 e63b 9e2f 28bc 7685 80bc
000000b0: 5c0f 40bd 4e91 0c3c 0d50 133d f0f6 183d
000000c0: bced ffbc 1baa 83bb 6f1b 523c 54d2 3dbc
000000d0: c8a1 9e3c d140 113b 4d4b 073d e188 ce3c
000000e0: 7ea5 f63b 54b2 efbc f23a 153c 3fda 7d3c
000000f0: feba 8abc 2a6b ccbc 7afa b33b c915 c33c
00000100: 7bd3 76b9 4d86 c03c 4219 673c 86d3 56bc
00000110: ca6e 6b3c 713d a83c b391 24bb 752f 013b
00000120: 8aba 53bb 2958 873c e61c c23c d70a 1bbd
00000130: e3e4 d73c 7b00 2e3d eb80 27bd 40f6 c03c
00000140: 0e05 98b7 e7d0 f53c 0cfe 65bc 5542 0b3d
00000150: 5f18 20bd fcb3 c83c 7655 563c 47f1 98bc
00000160: 1e97 2dbc 3a6f 05ba dfa5 04bd 6ba2 0e3c
00000170: d54a 22bd cd3d 3e3d 014d 08bc c0d6 fcbc
00000180: 6fb6 b1b7 7c90 88bc 7f4c 123d 229e ff3c
00000190: 927b 5bbc 1ede 633c 740a f23c d13f bcbc
000001a0: 34ed 263d e2aa 153d 1892 64bc 9d6f cbbc
000001b0: aa26 16bc 1b17 093d 09c7 b8bc 3572 513c
000001c0: 5543 873a 1b39 013d 5c5d 163d 366c 9b3c
000001d0: cd99 a93c 496d 313d 79ef f53c 9610 b93c
000001e0: eec9 23bd 7649 c23c b041 b33c 9ebe 683c
000001f0: bfb2 6cbb 2539 d03c 38fb 363d e4b2 6f3b
00000200: deb1 15bb 08cf 32bd 89ad 87bb d0e1 4c3c
00000210: cdf4 99bc 3f3a b5bc 3b19 333c 72b0 9bbc
00000220: 0a11 8c3c 6219 293d ba29 23bd d60b 8cbb
00000230: 42be 1abd d4d8 103c f6bb debc 0a9e 02bd
00000240: 6ebe 52bb 373b d7bc 617e 153c a3fb e9bb
00000250: 5b54 ca3c 8f7b 113d 1ecd 77bb 358f 7dbc
00000260: 8973 27bd 12da 1cbd 766d 073d 12f3 293d
00000270: 2e6f 22bc fdf3 e53c 9cee 1e3d b96b f23c
00000280: 1004 1f3d 391b 873c eb97 023c 849f 3a3d
00000290: e957 153c f1fd 143c 0187 633c 1a56 abbc
000002a0: 133e a0bb 9729 c3ba 7def a93c 05c7 0dbd
000002b0: 4e67 29bd ba36 263d 05ef f53b 7f3f 33bc
000002c0: 50c9 d83c 9261 30bc 140b 273d 25e9 573c
000002d0: cff0 163d 16f1 0b3d 68a7 463c b3b8 e9bc
000002e0: 7884 cc3c 12ad 3abc aa5e 913c 7478 91bb
000002f0: d586 85bc a476 a73c da4c 843c 614b f53b
00000300: d01a 0cbd 898e 5ebb eae7 22bd 4218 e63b
00000310: 4ac3 4fbc 1bfd f83c c702 91bc 5be4 523c
00000320: 6ea1 f6bc 4c27 22bc 5794 6cbc f716 623c
00000330: 9f3e fdba d497 1a3d 2b79 e1bc 5e19 063c
00000340: afd6 56bc 23d4 b23c c209 a33c 7a6d a2bc
00000350: 8b62 883c 0dd1 d2bc e8a1 c0bb 3d77 0b3d
00000360: dec6 033c fd57 cd3c 67ec f8bc adab 3d3c
00000370: 40a6 043d 146b d1bc 00c2 8e3c 31de cdbc
00000380: 3044 28bd e2eb b7bc c099 04bd a580 d7bc
00000390: 6a2d f5bc 220e 383c 504e 9b3b d819 d0bc
000003a0: ecbd d83c 724a 16bc ceb0 22bd fed0 98bc
000003b0: 938a 20bd 9a14 ad3a c9a1 0e3d c526 a03b
000003c0: 89cf 45bc ef32 43bc fda9 853b 3463 a1bc
000003d0: a505 06bc b929 50bc d4d0 b33c fbb2 db3c
000003e0: fb11 77bc a76f 99bc 204f 903c ead3 29bd
000003f0: 9aa1 223d e420 ef39 c920 f43c b26a eebc

fc_sarcasm.weight f4 [1, 512]
-0.0055861953 -0.026536636 -0.010714759 0.016436225 0.014183335 0.03208747 -0.022423077 -0.040366527
-0.035569806 0.014942233 0.022678938 0.010825196 -0.034263406 0.028838208 -0.014116588 0.021691278
0.019137941 -0.045960903 0.023393245 -0.02659595 0.018608043 -0.0016245783 0.021683013 -0.00087093335
-0.03727172 0.014711611 0.033491965 0.03816642 0.0033838286 0.021028323 -0.028849171 0.010153238
-0.0060301274 -0.0013640863 0.020415159 -0.027938321 -0.038310733 -0.03413743 -0.008744225 0.036911316
-0.015682427 -0.012078707 -0.008745202 -0.0060213846 0.01228104 0.02982138 0.008183948 0.022336492
-0.03925055 0.040865567 0.012710257 -0.0055437814 -0.008737747 0.01226621 -0.026661055 -0.037651543
0.0137207545 -0.04051031 0.008189632 0.030196859 0.011505687 -0.032936607 0.02943331 0.013614428
0.005001551 0.031983696 -0.026990358 -0.012618261 -0.008323023 -0.027630234 -0.044499174 -0.022011098
0.007274286 0.03397913 -0.03467712 0.001970153 0.032067087 0.024852987 -0.041817736 0.0009040018
0.009635158 -0.04142733 -0.021592302 0.0026582852 0.040059835 0.034740724 0.040822245 -0.019264555
-0.021364147 -0.019754099 0.03637001 0.0179928 -0.020803466 0.00019514795 -0.025126947 0.04287388
-0.032350585 0.041767336 0.024047513 -0.0056012846 -0.004194034 -0.030270567 0.003611924 0.0105778985
-0.036601916 -0.022167485 -0.020688966 0.025733896 0.0028625487 -0.005432248 0.023482107 0.026109608
0.0056957896 -0.008557652 -0.009407544 0.0036247598 -0.03421205 -0.023499964 -0.03475221 -0.02643748
-0.041260287 0.0018460602 0.04310698 -0.015975302 -0.018548511 -0.037120078 0.041791108 0.008557966
-0.037267588 0.025748786 -0.015858108 -0.029088417 0.015089774 0.0021666049 0.012047558 0.031701125
-0.011695022 -0.044190235 0.02192871 -0.033241615 -0.036787298 -0.009083291 -0.04077474 0.0097776055
-0.0065368614 0.004917093 -0.0075822254 0.037298206 0.02785004 0.022768226 -0.012161463 0.044442493
-0.005606247 0.02555912 -0.010432718 -0.036838394 -0.011625296 0.030712128 -0.023265647 0.018046364
0.025688343 0.017021753 0.036195073 -0.028647035 0.02775532 -0.041660942 0.019091588 0.03467882
-0.035393532 0.02430904 -0.029156225 -0.0057593603 -0.00030115223 0.0015868088 0.011621954 -0.020733068
-0.0056555592 -0.015834196 -0.006910601 -0.008454853 -0.020887997 0.0021058978 -0.019057129 0.030478716
-0.00018722827 -0.012854807 -0.035914328 -0.004217236 -0.029069973 -0.000921213 -0.009167472 -0.0012666521
-0.026345247 -0.01055971 0.011508515 -0.025797391 0.044612944 0.025945479 -0.00652501 0.007237103
0.031901333 -0.023354322 -0.037060987 -0.031268068 -0.036637988 -0.022543428 -0.0040426026 0.0017079627
0.005290387 -0.04165724 -0.02690431 -0.023157723 -0.019833809 -0.036055043 0.035300817 0.035661895
0.009596313 0.01044731 -0.026377073 0.026581245 0.001417375 0.0015947318 0.012771506 0.0057506915
0.03286874 -0.024299206 -0.003326201 0.024144005 -0.03710713 0.012563614 -0.04073137 -0.00832819
0.038591947 -0.025150284 0.00011275743 -0.047704104 -0.037025746 0.037887387 0.027503427 -0.040312905
-0.01675634 0.0011899634 -0.009228715 -0.025033655 -0.035544768 -0.007672596 0.021212578 -0.017100781
0.037699524 0.026074883 -0.026445003 -0.009464661 0.028796028 0.017744098 -0.038921244 0.03248738
00000000: 670c b7bb 5c63 d9bc f58c 2fbc 43a5 863c
00000010: 3861 683c 276e 033d 9ab0 b7bc 5f57 25bd
00000020: a5b1 11bd 45d0 743c 2ec9 b93c 2a5c 313c
00000030: c957 0cbd 1b3e ec3c 4349 67bc e8b1 b13c
00000040: 2cc7 9c3c 8041 3cbd 31a3 bf3c c0df d9bc
00000050: e56f 983c cdef d4ba 93a0 b13c 594f 64ba
00000060: 3baa 18bd f808 713c df2e 093d 6454 1c3d
00000070: 39c3 5d3b 9743 ac3c 1955 ecbc c459 263c
00000080: 6098 c5bb 24cb b2ba b13d a73c e8de e4bc
00000090: b7eb 1cbd b1d3 0bbd f043 0fbc 5230 173d
000000a0: 6f78 80bc c5e5 45bc 0948 0fbc 094f c5bb
000000b0: 6a36 493c f74b f43c f715 063c 05fb b63c
000000c0: 2fc5 20bd a762 273d af3e 503c 9ca8 b5bb
000000d0: c428 0fbc 37f8 483c 4968 dabc 8138 1abd
000000e0: 04cd 603c 24ee 25bd ce2d 063c 675f f73c
000000f0: 5982 3c3c 89e8 06bd 201e f13c 0d0f 5f3c
00000100: 0de4 a33b 5601 033d e21a ddbc d3bc 4ebc
00000110: 4a5d 08bc cd58 e2bc c444 36bd 9e50 b4bc
00000120: 225d ee3b b32d 0b3d 9909 0ebd af1d 013b
00000130: c758 033d 7e98 cb3c 1349 2bbd 89fa 6c3a
00000140: c8dc 1d3c b4af 29bd 57e2 b0bc a036 2e3b
00000150: c815 243d 4a4c 0e3d 3a35 273d b3d0 9dbc
00000160: dd03 afbc 59d3 a1bc b8f8 143d a365 933c
00000170: 086c aabc a1a0 4c39 07d7 cdbc 869c 2f3d
00000180: 0c82 04bd 3a14 2b3d 4aff c43c fb8a b7bb
00000190: 1b6e 89bb fbf9 f7bc 07b6 6c3b ec4e 2d3c
000001a0: e4eb 15bd 9698 b5bc e87b a9bc e4cf d23c
000001b0: 9999 3b3b 0001 b2bb 8c5d c03c d1e3 d53c
000001c0: bfa3 ba3b 6535 0cbc 1922 1abc 618d 6d3b
000001d0: ef21 0cbd ff82 c0bc 5558 0ebd 6a93 d8bc
000001e0: 8c00 29bd 80f7 f13a f290 303d a3de 82bc
000001f0: 0cf3 97bc 390b 18bd 272d 2b3d b636 0c3c
00000200: e6a5 18bd 1eef d23c dde8 81bc d54a eebc
00000210: 193b 773c 99fd 0d3b 1f63 453c 0ad9 013d
00000220: 7a9c 3fbc d200 35bd d7a3 b33c 5c28 08bd
00000230: 47ae 16bd 15d2 14bc 6a03 27bd 4032 203c
00000240: 2b33 d6bb 911f a13b 5174 f8bb 01c6 183d
00000250: c425 e43c 6e84 ba3c df40 47bc 5509 363d
00000260: 9cb4 b7bb 5c61 d13c feed 2abc dbe3 16bd
00000270: 0778 3ebc 0098 fb3c 9997 bebc f8d5 933c
00000280: 5c70 d23c 3471 8b3c 4941 143d 30ad eabc
00000290: 205f e33c aaa4 2abd f665 9c3c 610b 0e3d
000002a0: cff8 10bd c023 c73c 09d9 eebc 04b9 bcbb
000002b0: f8e3 9db9 78fc cf3a 026a 3e3c 65d8 a9bc
000002c0: 4552 b9bb b7b6 81bc 5372 e2bb 3986 0abc
000002d0: 4e1d abbc 1a03 0a3b b21d 9cbc 80ae f93c
000002e0: b552 44b9 f89c 52bc e71a 13bd bd30 8abb
000002f0: 2724 eebc 8f7d 71ba 2a33 16bc cb05 a6ba
00000300: fdd1 d7bc a202 2dbc 368e 3c3c 0d55 d3bc
00000310: 10bc 363d 9d8b d43c c0cf d5bb 3825 ed3b
00000320: f9aa 023d 9051 bfbc 43cd 17bd f212 00bd
00000330: b711 16bd ffac b8bc cf77 84bb b8dd df3a
00000340: fc5a ad3b c8a0 2abd 6d66 dcbc 44b5 bdbc
00000350: 837a a2bc 74ae 13bd 9797 103d 3512 123d
00000360: db39 1d3c 322b 2b3c bb14 d8bc e9c0 d93c
00000370: 37c7 b93a 5206 d13a 943f 513c 4c70 bc3b
00000380: 5fa1 063d 210f c7bc 65fc 59bb a6c9 c53c
00000390: a5fd 17bd 9ed7 4d3c f0d5 26bd f672 08bc
000003a0: 9712 1e3d f807 cebc 2f78 ec38 6165 43bd
000003b0: 4fa8 17bd ce2f 1b3d de4e e13c 251f 25bd
000003c0: 9844 89bc 8cf8 9b3a 0934 17bc 6113 cdbc
000003d0: 6497 11bd 666a fbbb 00c6 ad3c f016 8cbc
000003e0: d16a 1a3d fe9a d53c 31a3 d8bc aa11 1bbc
000003f0: a6e5 eb3c 125c 913c e26b 1fbd 7d11 053d

fc_offensive.weight f4 [1, 512]
0.0188174 0.024652427 -0.03044442 0.02194441 -0.011976546 -0.016007625 -0.032080587 0.010665114
0.02830704 0.01927276 0.0071741156 -0.0061340397 -0.010498523 0.0028564492 0.023264088 -0.012543055
0.0017883381 -0.025244607 0.028060874 -0.037922077 0.030755717 -0.012963853 0.005800603 0.015510307
-0.028882692 -0.022017945 0.045360282 -0.020929197 0.027255744 0.0073559703 -0.027959725 0.004193123
0.022046683 0.041319374 0.014841471 -0.0106769 -0.014174495 -0.019085092 0.009487473 -0.04278035
0.0035020963 0.0067419014 0.03452664 -0.040464602 -0.022234296 0.03134426 0.0059612878 -0.028805159
-0.0013998945 0.015423458 -0.027751587 0.03523657 0.022125259 -0.012233157 0.024176944 0.028365862
-0.0144232195 -0.040171385 0.02826665 0.036766432 -0.019245453 -0.020804375 -0.01680826 -0.0451907
-0.024179745 -0.021017898 -0.025587168 0.021915203 -0.0019538386 0.041115336 0.02261924 0.03104213
0.041034188 0.022681884 0.009101813 -0.03191499 0.002931716 -0.028648986 -0.030633697 -0.027246306
-0.03149657 0.0061133034 -0.018369226 -0.023236291 0.02710043 -0.030940825 -0.0136343315 0.023630546
0.01588158 -0.010146092 -0.019727781 0.01969006 -0.0044181896 0.029030306 0.006411058 -0.030732557
0.001291382 0.0034508647 -0.04270483 -0.037009433 0.041038476 0.012672538 0.0025715798 -0.013294916
-0.011031001 -0.040417913 -0.012247013 0.020777455 -0.020689659 -0.0006759069 -0.013797969 0.014689459
-0.0036701004 0.033942826 -0.022712545 -0.011753961 0.027592553 -0.023866309 0.028184919 -0.023691768
-0.01508305 -0.039249577 -0.021329913 -0.04651645 0.037482817 0.03540611 0.027759511 0.038380977
0.017831586 -0.031392008 -0.024934547 0.02474078 -0.04108892 -0.0034671845 0.0097273225 0.037478827
0.03493717 -0.006664934 0.01694051 0.0013443764 0.038544893 -0.037565645 0.012163527 0.017970122
0.023448309 0.011299292 -0.018828152 0.03682084 0.0362594 0.02060429 -0.03534286 0.02331612
-0.040568553 0.00159882 0.018740425 0.031024208 -0.022627823 0.040071316 0.013894549 0.01820455
0.006922314 -0.03855371 0.0025250341 0.034046344 -0.043712333 -0.01952855 -0.022893919 -0.016508449
-0.021752646 -0.015293183 -0.034376718 -0.027849307 0.03707812 0.03942874 -0.042123336 -0.028145388
0.0012998864 -0.006040378 0.029896736 -0.03652542 -0.018133149 -0.0014042406 -0.03522703 -0.019707667
-0.036096074 -0.0021812012 -0.0044971555 0.026541293 -0.034797788 -0.028948974 -0.0023634583 -0.03128004
-0.0057072886 0.035912715 -0.042636164 0.027569512 -0.035934005 -0.0027684504 0.030176843 -0.019537061
0.0052141715 0.007256578 0.012062219 0.0033531194 -0.033654556 -0.04098454 0.016815044 -0.030533543
-0.023276122 0.0036127763 0.017741498 -0.037734896 0.0145331435 -0.043711573 -0.001589097 0.030084252
-0.009213334 -0.033817627 0.02516216 0.034289733 -0.015715806 -0.023284815 0.03869639 0.0019106971
0.008278493 0.029698512 0.0010222924 0.010977932 0.03013476 -0.026917934 0.022118887 0.04270421
0.03364321 -0.009655543 -0.001522997 0.020565426 0.044458758 -0.019391574 0.017992698 -0.007413794
-0.01908572 0.021924194 0.03819718 0.033878546 -0.023089746 0.03321288 -0.012863647 -0.02797662
0.027314654 -0.008669643 0.018199135 0.02120918 0.00565061 -0.022348657 -0.033471208 -0.0033875199
00000000: f326 9a3c e3f3 c93c 9466 f9bc c3c4 b33c
00000010: 4639 44bc 6c22 83bc ef66 03bd bbbc 2e3c
00000020: 2ae4 e73c e8e1 9d3c d814 eb3b 0e00 c9bb
00000030: ff01 2cbc 4433 3b3b 5494 be3c 6381 4dbc
00000040: ab66 ea3a c7cd cebc ebdf e53c 2e54 1bbd
00000050: 6af3 fb3c 5766 54bc fc12 be3b f11e 7e3c
00000060: 659b ecbc fa5e b4bc b4cb 393d b573 abbc
00000070: 7047 df3c 5a0a f13b cb0b e5bc 7766 893b
00000080: 3f9b b43c 813e 293d a429 733c 2aee 2ebc
00000090: 243c 68bc 5758 9cbc 5971 1b3c 733a 2fbd
000000a0: 6d83 653b 2beb dc3b ce6b 0d3d 36be 25bd
000000b0: b324 b6bc d762 003d e856 c33b ccf8 ebbc
000000c0: aa7c b7ba acb2 7c3c 4c57 e3bc 3954 103d
000000d0: 0840 b53c 946d 48bc ba0e c63c 865f e83c
000000e0: 5e4f 6cbc c08a 24bd 768f e73c 6698 163d
000000f0: a4a8 9dbc f06d aabc 7ab1 89bc e219 39bd
00000100: 9a14 c6bc ba2d acbc 2e9c d1bc 8387 b33c
00000110: f90b 00bb 8e68 283d fc4b b93c 114c fe3c
00000120: 7713 283d 5ccf b93c c51f 153c 4bb9 02bd
00000130: 0822 403b 47b1 eabc 85f3 fabc a533 dfbc
00000140: 8c02 01bd 1b52 c83b 0f7b 96bc 095a bebc
00000150: b901 de3c 9d77 fdbc 8862 5fbc d994 c13c
00000160: 161a 823c cb3b 26bc 289c a1bc 0c4d a13c
00000170: 76c6 90bb f7d0 ed3c da13 d23b d8c2 fbbc
00000180: 9743 a93a e727 623b 43eb 2ebd 3497 17bd
00000190: f617 283d 7aa0 4f3c f387 283b ebd2 59bc
000001a0: 5fbb 34bc 418d 25bd b2a7 48bc 7b35 aa3c
000001b0: 5c7d a9bc 582f 31ba e010 62bc 0fac 703c
000001c0: 1186 70bb a207 0b3d a90f babc b093 40bc
000001d0: c709 e23c 4783 c3bc 0fe4 e63c 3d15 c2bc
000001e0: e61e 77bc 2ac4 20bd 12bc aebc 0888 3ebd
000001f0: 9587 193d ff05 113d ea67 e33c 5f35 1d3d
00000200: 8c13 923c e894 00bd 8943 ccbc 2dad ca3c
00000210: db4c 28bd b439 63bb 595f 1f3c 6683 193d
00000220: 471a 0f3d 8565 dabb d3c6 8a3c c935 b03a
00000230: 40e1 1d3d 6fde 19bd 8849 473c 1436 933c
00000240: ab16 c03c aa20 393c 7f3d 9abc 73d1 163d
00000250: bd84 143d 54ca a83c adc3 10bd 7301 bf3c
00000260: 362b 26bd 7f8f d13a 8585 993c 7b26 fe3c
00000270: fc5d b9bc d221 243d f6a5 633c b521 953c
00000280: 94d4 e23b 7fea 1dbd 0b7b 253b 2e74 0b3d
00000290: b40b 33bd 56fa 9fbc 078c bbbc ba3c 87bc
000002a0: 9b32 b2bc 4290 7abc 9ace 0cbd 3b24 e4bc
000002b0: 3adf 173d 0880 213d 8589 2cbd 2891 e6bc
000002c0: f360 aa3a 5dee c5bb 00ea f43c ae9b 15bd
000002d0: f88b 94bc 7f0e b8ba 384a 10bd f971 a1bc
000002e0: 7ad9 13bd 7cf2 0ebb e05c 93bb 206d d93c
000002f0: 2088 0ebd 6626 edbc 40e4 1abb 801f 00bd
00000300: 3504 bbbb 3619 133d 42a3 2ebd 75d9 e13c
00000310: 892f 13bd e46e 35bb 6d35 f73c 300c a0bc
00000320: a4db aa3b 97c8 ed3b 9da0 453c 02c0 5b3b
00000330: 5cd9 09bd 68df 27bd b4bf 893c 7b21 fabc
00000340: 91ad bebc 54c4 6c3b 9e56 913c e88f 1abd
00000350: 6c1c 6e3c e80a 33bd 3f49 d0ba 4073 f63c
00000360: 86f3 16bc 5a84 0abd e020 ce3c 6473 0c3d
00000370: 6fbe 80bc ccbf bebc 1b80 1e3d 5b70 fa3a
00000380: 84a2 073c 4b4a f33c 71fe 853a c9dc 333c
00000390: 2cdd f63c 0083 dcbc ab32 b53c 9cea 2e3d
000003a0: 76cd 093d 4832 1ebc 4d9f c7ba d378 a83c
000003b0: 631a 363d 14db 9ebc 6c65 933c 69ef f2bb
000003c0: a859 9cbc 5e9a b33c a574 1c3d 3bc4 0a3d
000003d0: b526 bdbc 3b0a 083d 0cc2 52bc 392f e5bc
000003e0: fbc2 df3c 1e0b 0ebc 5a16 953c e0be ad3c
000003f0: c128 b93b 8814 b7bc 1b19 09bd 2701 5ebb

exp_avg f4 [1, 512]
0.002883118 -0.017695969 -0.0058374363 -0.0028586427 -0.008442417 -0.0019778828 -0.01164897 -0.0053312206
-0.0038816992 0.0031086353 -0.0023258063 0.0040414883 -0.0008347383 0.0065657236 0.0023777462 -0.0040095123
0.004697902 0.0020182536 -0.00015397859 0.0015005195 0.0022366894 0.0038047498 -0.0014874947 -0.00051263964
0.0023348564 0.00018109161 0.0012578135 -0.0017517653 -0.0018306412 -0.0008563994 -0.0016254219 -0.00056490605
0.0008429452 -0.00041396313 -0.002014933 -0.001990641 -0.0008131747 0.0013398128 0.0024178158 -0.00023036834
0.00048698517 -0.0008992086 0.0005879222 -0.0016285619 -0.0019431643 0.0012679236 0.00016609424 -0.0011749156
-0.0009725205 0.00039221058 -0.0010964272 -0.002174251 -0.0010514514 -0.0002053881 0.00017907094 0.0028233856
0.0010248933 -0.00043449245 0.0005084816 -0.00028934292 -0.00028259653 -0.002571605 0.0016404121 -0.0001488422
-0.0011109528 0.0023264992 -0.0009383648 -0.0010915133 0.0010459506 -1.1047267e-05 0.0013561331 -0.00018313667
-0.00067974045 -0.0020008532 -2.6450205e-05 0.0007079992 -0.00012232918 0.00056003034 0.0016002433 -2.5232315e-05
0.0008992204 -0.00015657778 0.0012854658 0.0013019531 0.00031090717 -0.0004146499 0.0011512095 0.0012850264
-0.0011096774 0.0013721489 0.00017174338 0.0014393547 0.0003364532 -0.00071327446 0.0006646467 0.0024904131
-0.00021854753 -0.001493955 -0.00035490448 -0.0015663927 0.0010719175 0.0006387761 5.7895002e-05 0.0004008127
-0.0007039136 0.00062567624 0.0009145928 0.0006633112 0.0005101282 0.0011468367 -0.0009764331 0.00060296396
0.00043950684 0.0011922315 -0.001037062 8.8503424e-05 -0.0007877429 0.0002430415 -1.2811072e-05 0.00017940132
-0.0009899248 0.00010408142 0.00042736705 0.00059311395 -0.00025958323 2.7407195e-05 -0.00026651373 8.5509964e-05
0.0004197714 0.0012741653 -0.00041739197 0.00012548566 4.5612593e-05 -0.0009552905 0.00011988349 0.0010212843
0.0010087367 0.00021712361 0.0006761777 -0.00035457456 0.00091925956 0.0011316771 0.0012637181 0.0012774091
-0.0014344258 0.00044153645 0.00081538595 0.00040499217 -0.00032937372 -0.00032814738 -0.0014531788 -0.00041171044
0.0013792377 0.00070089666 2.5859994e-05 -0.0016241273 -0.00028378746 0.00022308463 -0.00022236422 -0.00068556
0.0009929675 0.0011001142 -0.000609127 0.0007362116 0.00017745738 -0.00029437925 -6.829465e-05 -0.00042547748
-0.00028907787 -0.00029008518 -0.0007323749 -0.00040352732 0.00029116814 -0.00048570684 0.00024269347 0.00068032026
-0.00015758068 -0.00083046686 0.00048491082 1.2923312e-05 -0.00042830373 -0.0007540498 5.9559556e-05 0.00032084127
-0.0006534691 -0.00017507527 -0.0009930953 0.00037186404 -0.0007332688 0.00027747263 2.6501943e-06 0.00056415715
0.0007746072 -0.0009567328 0.0002211976 0.0006399842 0.00061922474 -0.00043819752 -0.00043160518 -0.00014599934
-0.0006590163 0.00031429756 -0.0009663782 -0.00025750967 -0.0004823345 0.00010036731 0.00026975092 -0.0002673385
0.0006028468 0.00032521327 8.587878e-05 -6.491726e-05 0.0007459468 -0.0002781235 -0.0005575786 0.00021577666
-0.00015061833 -0.00017042944 -0.00015061187 -0.0007951957 0.00073366804 -0.00056912017 -0.0004311419 0.00012301389
0.00046564688 -0.00044157452 -0.00014401226 0.0007842426 -0.0003658969 9.2205024e-05 9.614716e-06 -0.00058491965
0.0009774907 0.00023780827 -0.00044034948 8.482197e-05 0.00016164627 -0.00044652188 0.000677095 -0.00057385984
0.0005764913 0.00024161728 -0.00012405834 0.00065518863 4.2737e-05 0.00036424337 0.00022212573 0.00049017003
0.00035186936 -0.00015443558 -0.00047696722 -1.7662716e-05 0.00035081312 -2.0115805e-05 -0.00040557273 -2.6547337e-05
00000000: b2f2 3c3b 23f7 90bc f747 bfbb 1158 3bbb
00000010: 1052 0abc 5e9f 01bb 52db 3ebc 85b1 aebb
00000020: 1b64 7ebb 3fba 4b3b 8e6c 18bb 766e 843b
00000030: 57d2 5aba 4825 d73b f6d3 1b3b 3a62 83bb
00000040: dcf0 993b ad44 043b 5075 21b9 14ad c43a
00000050: 6c95 123b 1c59 793b 0af8 c2ba aa62 06ba
00000060: 6404 193b 69e3 3d39 38dd a43a 7d9b e5ba
00000070: 20f2 efba fe7f 60ba 1c0c d5ba 3416 14ba
00000080: 18f9 5c3a 3109 d9b9 f70c 04bb 6a75 02bb
00000090: 3b2b 55ba a89c af3a 3874 1e3b 088f 71b9
000000a0: 0b52 ff39 deb8 6bba ca1e 1a3a 7875 d5ba
000000b0: c6b1 feba 7530 a63a 9529 2e39 a0ff 99ba
000000c0: bff0 7eba 9da1 cd39 feb5 8fba e17d 0ebb
000000d0: dbd0 89ba 735d 57b9 fdc4 3b39 8d08 393b
000000e0: b655 863a 97cc e3b9 9f4b 053a f3b2 97b9
000000f0: 7729 94b9 5f88 28bb 1903 d73a 8612 1cb9
00000100: 649d 91ba 2e78 183b 99fc 75ba 1c11 8fba
00000110: 4718 893a a757 39b7 47c0 b13a 6008 40b9
00000120: 9c30 32ba bf20 03bb 62e1 ddb7 0699 393a
00000130: 7d45 00b9 00cf 123a 41bf d13a fca9 d3b7
00000140: a9b9 6b3a 072f 24b9 137d a83a 4ca6 aa3a
00000150: 4101 a339 5e65 d9b9 2ee4 963a 556e a83a
00000160: 9872 91ba add9 b33a 0316 3439 bba8 bc3a
00000170: fc65 b039 0afb 3aba af3b 2e3a 3336 233b
00000180: e829 65b9 d0d0 c3ba 7912 bab9 6b4f cdba
00000190: 957f 8c3a 8a73 273a 49d4 7238 2c24 d239
000001a0: d886 38ba 6c04 243a 49c1 6f3a 10e2 2d3a
000001b0: 20ba 053a 7451 963a 51f7 7fba 3a10 1e3a
000001c0: 9c6d e639 a744 9c3a 07ee 87ba ea9a b938
000001d0: 8880 4eba f5d8 7e39 23ef 56b7 ad1d 3c39
000001e0: 5dc0 81ba 4946 da38 3c10 e039 347b 1b3a
000001f0: ac18 88b9 81e8 e537 deba 8bb9 d053 b338
00000200: c314 dc39 e501 a73a 67d5 dab9 cd94 0339
00000210: 2650 3f38 766c 7aba f569 fb38 9ddc 853a
00000220: 9637 843a adab 6339 8441 313a 31e6 b9b9
00000230: 77fa 703a c854 943a 58a3 a53a bd6e a73a
00000240: 5803 bcba 057e e739 a0bf 553a 2155 d439
00000250: cbaf acb9 320b acb9 9778 beba d7da d7b9
00000260: 8ac7 b43a 61bc 373a eaed d837 abe0 d4ba
00000270: 4fc9 94b9 d3eb 6939 712a 69b9 27b7 33ba
00000280: 7626 823a b531 903a d2ad 1fba 53fe 403a
00000290: da13 3a39 ea56 9ab9 6939 8fb8 9f12 dfb9
000002a0: 608f 97b9 9316 98b9 d9fc 3fba 8590 d3b9
000002b0: eda7 9839 78a6 feb9 887b 7e39 8557 323a
000002c0: 3e3c 25b9 b0b3 59ba a13b fe39 34d1 5837
000002d0: f48d e0b9 6dab 45ba 96cf 7938 9636 a839
000002e0: 924d 2bba 6994 37b9 c02a 82ba bff6 c239
000002f0: d638 40ba bf79 9139 fed9 3136 f2e3 133a
00000300: 020f 4b3a 40cd 7aba 47f1 6739 9dc4 273a
00000310: 7853 223a e0bd e5b9 1149 e2b9 6617 19b9
00000320: d6c1 2cba 4ec8 a439 8b54 7dba 5d02 87b9
00000330: d7e1 fcb9 4a7c d238 5b6d 8d39 9129 8cb9
00000340: 5d08 1e3a 6381 aa39 d219 b438 3024 88b8
00000350: a48b 433a 1bd1 91b9 772a 12ba 1b42 6239
00000360: 4def 1db9 4eb5 32b9 91ed 1db9 ae74 50ba
00000370: a153 403a 0231 15ba e30a e2b9 4afd 0039
00000380: 1122 f439 2183 e7b9 ff01 17b9 a195 4d3a
00000390: dad5 bfb9 325e c138 e44e 2137 4b55 19ba
000003a0: 251f 803a 2c5c 7939 b5de e6b9 73e2 b138
000003b0: 977f 2939 271b eab9 147f 313a 156f 16ba
000003c0: ad1f 173a a55a 7d39 a815 02b9 f7c0 2b3a
000003d0: 8140 3338 ebf7 be39 6cea 6839 c17e 003a
000003e0: 1b7b b839 fcef 21b9 7511 fab9 652a 94b7
000003f0: 57ed b739 5dbe a8b7 0da3 d4b9 f9b1 deb7

exp_avg_sq f4 [1, 512]
0.002411562 0.0007930215 0.0005126498 0.00041104035 0.0002979867 0.0002681473 0.00022588224 0.00022406776
0.00019369392 0.00016094832 0.00014202466 0.00014333297 0.0001286717 0.00013488001 0.000120319106 0.00010686457
0.000105585284 9.409059e-05 7.972619e-05 7.8048535e-05 7.382327e-05 7.276268e-05 6.961393e-05 6.797015e-05
6.479587e-05 6.5814296e-05 6.43833e-05 5.5350774e-05 6.135066e-05 5.1291823e-05 5.5339275e-05 4.7195725e-05
5.0179566e-05 4.681295e-05 4.5599285e-05 4.496156e-05 4.233185e-05 4.0065053e-05 4.2022344e-05 3.881049e-05
3.7646812e-05 3.9419756e-05 3.4059536e-05 3.6770776e-05 3.836365e-05 3.2493193e-05 3.2389937e-05 3.3321707e-05
3.2840613e-05 3.0150299e-05 2.9640734e-05 2.838573e-05 3.0372443e-05 2.6878577e-05 2.7524897e-05 2.7059185e-05
2.7059867e-05 2.5750942e-05 2.6055019e-05 2.4373112e-05 2.3613216e-05 2.4426974e-05 2.4704945e-05 2.2451159e-05
2.2789896e-05 2.2932538e-05 2.2517464e-05 2.2991711e-05 1.953229e-05 2.064509e-05 1.9085517e-05 2.0864834e-05
1.853093e-05 1.8332821e-05 1.8340357e-05 1.701532e-05 1.8419876e-05 1.8240748e-05 1.9911842e-05 1.7906917e-05
1.6649654e-05 1.7331595e-05 1.7192506e-05 1.5296846e-05 1.705299e-05 1.6461687e-05 1.5008849e-05 1.4898427e-05
1.6104035e-05 1.4723084e-05 1.4827284e-05 1.4271637e-05 1.451772e-05 1.2734841e-05 1.4585869e-05 1.3642423e-05
1.2651594e-05 1.2978144e-05 1.3548633e-05 1.207259e-05 1.2143252e-05 1.23499285e-05 1.23638e-05 1.1152303e-05
1.1780489e-05 1.1139154e-05 1.1973705e-05 1.2067374e-05 1.1611585e-05 1.05566605e-05 1.0827032e-05 1.1230178e-05
1.0592158e-05 9.9947565e-06 1.10750025e-05 1.0027224e-05 9.985018e-06 9.302113e-06 1.0096484e-05 9.638219e-06
9.065768e-06 9.039177e-06 1.0141342e-05 9.5312125e-06 9.130012e-06 8.5052225e-06 8.440063e-06 8.296944e-06
8.584956e-06 8.74858e-06 8.170393e-06 9.054911e-06 7.607828e-06 8.035362e-06 8.0643695e-06 7.4428212e-06
7.857641e-06 7.614418e-06 7.2263533e-06 7.890051e-06 7.954914e-06 7.2960274e-06 7.488713e-06 7.332217e-06
7.5904236e-06 7.145575e-06 6.734978e-06 7.4772897e-06 6.4704664e-06 7.043939e-06 6.6438497e-06 6.6722246e-06
6.4247197e-06 5.9616814e-06 6.3977113e-06 6.585586e-06 6.4529236e-06 6.489687e-06 6.037441e-06 5.817751e-06
5.8675037e-06 6.498256e-06 5.7744537e-06 5.5944033e-06 5.489158e-06 5.605589e-06 5.5707987e-06 5.3377184e-06
5.317272e-06 5.3692365e-06 5.237935e-06 5.0219933e-06 4.894726e-06 4.8153274e-06 5.047443e-06 5.1023617e-06
4.7148833e-06 4.9574055e-06 4.6356336e-06 5.0362937e-06 4.6978266e-06 4.7601975e-06 4.6399737e-06 4.6373075e-06
4.391864e-06 4.3638856e-06 4.6400055e-06 4.5912097e-06 4.2353e-06 4.027137e-06 4.5627453e-06 4.4250264e-06
4.2616393e-06 4.090744e-06 4.2138295e-06 3.9916954e-06 3.919046e-06 3.8931016e-06 3.7634354e-06 3.6727015e-06
3.8024602e-06 3.60391e-06 3.9295946e-06 3.7800498e-06 3.77579e-06 3.7974726e-06 3.6331226e-06 3.413739e-06
3.4125324e-06 3.5386051e-06 3.4814916e-06 3.527444e-06 3.4464013e-06 3.4691986e-06 3.31862e-06 3.4409325e-06
3.326956e-06 3.083637e-06 3.1808463e-06 3.258195e-06 3.1829286e-06 3.1701054e-06 3.2465703e-06 3.1544064e-06
2.92895e-06 3.18679e-06 2.7520157e-06 3.026961e-06 2.8828438e-06 2.9189844e-06 2.965227e-06 2.9101957e-06
2.7566668e-06 2.6804678e-06 2.806111e-06 2.6049086e-06 2.8253064e-06 2.675456e-06 2.6235048e-06 2.6544635e-06
2.7469673e-06 2.6182647e-06 2.6293594e-06 2.8657867e-06 2.4990413e-06 2.4914566e-06 2.585947e-06 2.4509081e-06
2.5248773e-06 2.3297605e-06 2.2688525e-06 2.241312e-06 2.34442e-06 2.2523525e-06 2.19562e-06 2.4105418e-06
00000000: 4c0b 1e3b c6e2 4f3a 5963 063a e780 d739
00000010: 193b 9c39 1f96 8c39 cdda 6c39 bbf3 6a39
00000020: 511a 4b39 3cc4 2839 74ec 1439 a74b 1639
00000030: 0cec 0639 946e 0d39 d453 fc38 7b1c e038
00000040: ab6d dd38 8052 c538 ac32 a738 fdad a338
00000050: 91d1 9a38 2b98 9838 b2fd 9138 328b 8e38
00000060: 05e3 8738 c805 8a38 8505 8738 7128 6838
00000070: 63a9 8038 2d22 5738 181c 6838 06f4 4538
00000080: e677 5238 0659 4438 dc41 3f38 1c95 3c38
00000090: 7a8d 3138 860b 2838 2641 3038 72c8 2238
000000a0: f5e6 1d38 a456 2538 26db 0e38 523a 1a38
000000b0: a8e8 2038 4d49 0838 6eda 0738 e9c2 0b38
000000c0: 57be 0938 46eb fc37 fea4 f837 e41d ee37
000000d0: 53c8 fe37 4e79 e137 44e5 e637 28fd e237
000000e0: 9ffe e237 ba03 d837 ba90 da37 dc74 cc37
000000f0: ff14 c637 87e8 cc37 773d cf37 7f55 bc37
00000100: ee2c bf37 405f c037 e3e3 bc37 53de c037
00000110: 46d9 a337 fe2e ad37 d619 a037 e406 af37
00000120: df72 9b37 6fc9 9937 9ed9 9937 1fbc 8e37
00000130: 6284 9a37 b503 9937 5b08 a737 d036 9637
00000140: dcaa 8b37 5163 9137 a038 9037 ba51 8037
00000150: 040d 8f37 3417 8a37 84ce 7b37 42f4 7937
00000160: 2717 8737 2a03 7737 b3c2 7837 3770 6f37
00000170: 2291 7337 baa7 5537 d5b5 7437 c3e1 6437
00000180: 2f42 5437 b4bc 5937 f04e 6337 618b 4a37
00000190: dfba 4b37 8a32 4f37 1e6e 4f37 c71a 3b37
000001a0: d1a4 4537 4de2 3a37 ace2 4837 fa74 4a37
000001b0: 61cf 4237 831c 3137 c0a5 3537 3f69 3c37
000001c0: f9b4 3137 27af 2737 c6ce 3937 993a 2837
000001d0: 5385 2737 4510 1c37 1264 2937 d6b3 2137
000001e0: 2d19 1837 f8a6 1737 bb24 2a37 3fe8 1f37
000001f0: 1a2d 1937 a7b1 0e37 cb99 0d37 1a33 0b37
00000200: 1b08 1037 ddc6 1237 9213 0937 8cea 1737
00000210: bf46 ff36 9ecf 0637 344c 0737 59bd f936
00000220: 50d4 0337 5a7f ff36 e779 f236 835f 0437
00000230: 1876 0537 66d0 f436 8e47 fb36 4407 f636
00000240: 3eb1 fe36 06c4 ef36 05fd e136 6ee5 fa36
00000250: e21c d936 fa5a ec36 3cee de36 f9e1 df36
00000260: ec93 d736 740a c836 ecab d636 c1f9 dc36
00000270: 3186 d836 fdc1 d936 3995 ca36 1a36 c336
00000280: 79e1 c436 980b da36 2ec2 c136 8fb7 bb36
00000290: 822f b836 a517 bc36 ccec ba36 a71a b336
000002a0: 056b b236 6429 b436 85c1 af36 9882 a836
000002b0: 603d a436 5993 a136 355d a936 f434 ab36
000002c0: 8a34 9e36 ca57 a636 ca8b 9b36 6ffd a836
000002d0: 06a2 9d36 c9b9 9f36 12b1 9b36 2b9a 9b36
000002e0: d35d 9336 7e6d 9236 58b1 9b36 310e 9a36
000002f0: f31c 8e36 d820 8736 af19 9936 b07a 9436
00000300: 34ff 8e36 3943 8936 8564 8d36 67f0 8536
00000310: 5980 8336 7da1 8236 548f 7c36 8878 7636
00000320: c52d 7f36 b4da 7136 f6da 8336 c3ac 7d36
00000330: 9463 7d36 15d8 7e36 92d0 7336 9717 6536
00000340: dc02 6536 c678 6d36 92a3 6936 07b9 6c36
00000350: b948 6736 61d0 6836 75b5 5e36 c5ea 6636
00000360: ab44 5f36 7bf0 4e36 8676 5536 5da7 5a36
00000370: 4c9a 5536 ffbd 5436 a7df 5936 4ab0 5336
00000380: fa8e 4436 a3dc 5536 45af 3836 cb22 4b36
00000390: e176 4136 c5e3 4336 36fe 4636 c84c 4336
000003a0: 2dff 3836 16e2 3336 9f50 3c36 fdcf 2e36
000003b0: 659a 3d36 fc8b 3336 780f 3036 5623 3236
000003c0: 8a58 3836 72b5 2f36 0d74 3036 d751 4036
000003d0: 34b5 2736 e632 2736 3b8a 2d36 487a 2436
000003e0: 1071 2936 fb58 1c36 9742 1836 7269 1636
000003f0: d454 1d36 1f27 1736 7758 1336 cbc4 2136

exp_avg f4 [1, 512]
-0.026972108 -0.013479265 0.0011286272 0.006476676 -0.0029362775 -0.0021547119 -0.0009192203 -0.005864253
-0.0052555986 0.0040028663 -0.002979277 0.0035256539 -0.004740188 0.0052056834 -0.0012786188 -0.004788607
0.0023140332 0.00034693984 -0.00032940088 -0.0010428149 -0.00027340336 0.0023349181 0.00021470935 -0.00029262502
0.002813868 0.001499028 -0.0007316876 -6.404389e-05 -0.0038921593 -0.0011227689 -0.0014936263 0.0009620749
-0.00046043866 6.807464e-05 -0.0019268082 0.0003817801 -0.0015227349 0.0025405793 0.0006651683 0.0015508917
0.0013947163 -0.00023139337 0.000611813 0.00071797025 -0.00091031974 0.0025782324 -1.2893602e-05 -0.0014940137
-0.0027716074 -0.0026093838 0.00048295167 -0.0018814425 -0.0016116931 -0.0003068865 -0.0032845775 0.001013626
-0.0005297257 -0.0004463494 -0.0019809115 0.0010683398 -0.0005654148 -0.0008776137 0.000359006 0.0002941386
-0.0011803164 -0.00068003207 -0.0015221824 -0.001225493 0.00040817139 -0.00077099085 0.0010526527 0.00029009714
-0.00094958727 0.0004751421 -0.00012060147 0.00034015466 -0.0004049244 0.00079604157 0.0015005759 -0.00024219281
0.0005947092 -0.00088032364 0.00029682528 -0.0007229453 4.052971e-05 -0.00091907027 -0.00013748676 0.00073138217
-0.0005844321 0.00043050596 -0.00020844852 0.0014782884 0.00016096955 -0.001385304 0.0015696278 0.0025894507
-8.64142e-05 -0.0025246174 -0.0003930255 0.00048071664 0.00036336452 -0.00047346513 0.0015006834 -0.0005528871
-0.0010225715 0.0010256692 0.0016032261 0.00025509004 0.00017453743 0.0012917625 0.0009969636 0.00080745475
-0.00028986423 0.00051369896 0.00045093938 -0.0005628992 -0.0010026902 0.00080281874 -0.00022253855 -0.0006830546
-0.0011750526 0.0008549266 -0.00026422756 0.00071601523 0.00047146 -0.0009575679 -0.0005161363 0.001023124
-0.00016921994 0.0008702825 0.00051416067 0.00024522396 0.001129312 -0.00026622388 0.0005813644 0.0012773337
0.0011299117 -0.0005884086 -0.00045089854 0.00044849594 0.0013390372 0.0012803365 0.0008314155 0.0005851157
-0.00031238038 0.00048020945 -7.041349e-05 0.00020932412 0.00015057146 0.00063731684 -0.0004785242 -0.00073905214
-0.00044696155 0.0010003336 0.00041271595 -0.0009494576 0.0004109857 0.00080903707 0.0006798168 -0.0005623608
3.9053262e-05 0.00044116488 0.0005323933 0.00023386447 -0.000552767 -0.00044831616 0.00017819724 3.786119e-05
-0.0005616103 -0.0006809631 -0.00013713005 -0.00059186306 0.00058053824 3.573778e-05 0.0002597291 5.5014676e-05
-0.000626733 -0.0005485986 0.00035282018 -0.00033048095 0.00027264102 0.00023622985 0.00064652675 -3.6869566e-05
0.00025146682 -0.00030128742 -0.001299319 -0.0003266775 -0.00020314305 6.329487e-05 0.0006482236 -8.8918845e-05
0.00035424726 -0.0006443166 0.00016148978 0.00050200743 -0.00016047663 -0.00012361871 -0.0012994653 0.00028731095
-0.00043105285 0.000102981016 -0.00073642086 -9.88575e-05 0.00016208325 -0.0013781233 -0.0005995766 -0.00058721594
0.0008925614 3.1947813e-05 6.441172e-05 -0.00017151918 0.00017669714 0.0005046911 -0.000101466554 -0.00042615767
-0.00065548054 -0.00077232695 -0.00021492089 -0.00072506623 0.00016044275 0.00029113027 -0.00053566054 -0.00025194313
0.00032077558 -0.00029294813 -0.00017983626 0.0007472693 0.0006437504 -3.149894e-05 0.00025728112 -0.00048307024
0.00070719287 -0.00083466107 -5.9873717e-05 1.5237238e-05 -0.00024264162 -0.000631118 8.935191e-05 -0.0005637873
0.0010631481 0.00066505466 -0.0002954244 9.147165e-05 -9.871182e-05 0.0003876229 5.0057828e-05 0.0005636687
0.00010344077 -0.0001266316 -9.123297e-05 0.000595009 0.0007688351 -6.6516775e-05 -0.00052021135 -0.00015155926
00000000: 9cf4 dcbc 23d8 5cbc 72ee 933a 4c3a d43b
00000010: 906e 40bb 1136 0dbb d5f7 70ba eb28 c0bb
00000020: 2837 acbb 7a2a 833b f93f 43bb a80e 673b
00000030: 9453 9bbb 7094 aa3b 5497 a7ba bfe9 9cbb
00000040: 09a7 173b 7ae5 b539 70b3 acb9 10af 88ba
00000050: 9457 8fb9 6d05 193b 9a23 6139 776b 99b9
00000060: df68 383b 087b c43a b9ce 3fba 4d4f 86b8
00000070: 9913 7fbb df29 93ba c8c5 c3ba c133 7c3a
00000080: 0867 f1b9 4bc3 8e38 f48c fcba a829 c839
00000090: 8196 c7ba d97f 263b b05e 2e3a 4a47 cb3a
000000a0: eace b63a 2fa2 72b9 1362 203a 2b36 3c3a
000000b0: 86a2 6eba 90f7 283b 9951 58b7 c8d2 c3ba
000000c0: dba3 35bb 3202 2bbb ad34 fd39 bc9a f6ba
000000d0: 723f d3ba 9ce5 a0b9 1142 57bb a5db 843a
000000e0: 4add 0aba 0104 eab9 2ed2 01bb 8907 8c3a
000000f0: 5838 14ba a90f 66ba f838 bc39 9d36 9a39
00000100: d9b4 9aba 2e44 32ba f783 c7ba b9a0 a0ba
00000110: d6ff d539 521c 4aba 2af9 893a 2e18 9839
00000120: b9ed 78ba 7e1c f939 6ceb fcb8 c956 b239
00000130: 084c d4b9 72ad 503a f9ae c43a 23f5 7db9
00000140: 42e6 1b3a 85c5 66ba 379f 9b39 0a84 3dba
00000150: 72fe 2938 c3ed 70ba 522a 10b9 3aba 3f3a
00000160: 9334 19ba 88b5 e139 f992 5ab9 21c3 c13a
00000170: efc9 2839 1793 b5ba f8bb cd3a c6b3 293b
00000180: 4539 b5b8 0d74 25bb fd0e ceb9 b208 fc39
00000190: f681 be39 6a3b f8b9 94b2 c43a a0ef 10ba
000001a0: ce07 86ba bf6f 863a 5723 d23a 9bbd 8539
000001b0: 0904 3739 5b50 a93a 8cac 823a 5fab 533a
000001c0: ebf8 97b9 c1a9 063a 0f6c ec39 878f 13ba
000001d0: b36c 83ba 4174 523a 3d59 69b9 050f 33ba
000001e0: 3904 9aba 271d 603a 0688 8ab9 f8b2 3b3a
000001f0: 4a2e f739 4b05 7bba 524d 07ba 581a 863a
00000200: a270 31b9 ac23 643a bdc8 063a 6791 8039
00000210: 6c05 943a f793 8bb9 b466 183a 356c a73a
00000220: 8c19 943a 6f3f 1aba 9466 ecb9 1b24 eb39
00000230: a282 af3a f7d0 a73a 5af3 593a 7362 193a
00000240: fcc6 a3b9 9fc4 fb39 f4aa 93b8 047e 5b39
00000250: b8e2 1d39 9c11 273a 6ee2 fab9 f3bc 41ba
00000260: 2a56 eab9 a01d 833a cc61 d839 05e5 78ba
00000270: 9179 d739 8f15 543a bc35 323a 656b 13ba
00000280: 1fcd 2338 264c e739 4f90 0b3a 8439 7539
00000290: 91e7 10ba fa0b ebb9 75da 3a39 25cd 1e38
000002a0: 0739 13ba a982 32ba 91ca 0fb9 4227 1bba
000002b0: 432f 183a 26e5 1538 402c 8839 8fbf 6638
000002c0: 574b 24ba d4cf 0fba b9fa b839 6744 adb9
000002d0: 42f1 8e39 78b4 7739 ad7b 293a 65a4 1ab8
000002e0: 4ed7 8339 1df6 9db9 e94d aaba e945 abb9
000002f0: cc02 55b9 2dbd 8438 8ded 293a f179 bab8
00000300: 43ba b939 5be7 28ba 9555 2939 2699 033a
00000310: 9e45 28b9 a59f 01b9 d252 aaba 39a2 9639
00000320: effe e1b9 83f7 d738 5e0c 41ba b751 cfb8
00000330: e4f4 2939 25a2 b4ba e82c 1dba 65ef 19ba
00000340: c8fa 693a b4ff 0538 c714 8738 d4d9 33b9
00000350: c747 3939 3f4d 043a 71ca d4b8 ea6d dfb9
00000360: 8ed4 2bba fc75 4aba 635c 61b9 5f12 3eba
00000370: 863c 2839 d8a2 9839 926b 0cba 3c17 84b9
00000380: c52d a839 d596 99b9 6e92 3cb9 65e4 433a
00000390: 5cc1 283a bb1d 04b8 b0e3 8639 9744 fdb9
000003a0: e962 393a 28cd 5aba ea20 7bb8 70a3 7f37
000003b0: 9d6d 7eb9 9d71 25ba 7162 bb38 20cb 13ba
000003c0: 5559 8b3a 1057 2e3a 31e3 9ab9 78d4 bf38
000003d0: 8103 cfb8 dd39 cb39 2ff5 5138 2bc3 133a
000003e0: 57ee d838 69c8 04b9 5454 bfb8 61fa 1b3a
000003f0: a68b 493a ec7e 8bb8 cb5e 08ba e1eb 1eb9

exp_avg_sq f4 [1, 512]
0.0024034095 0.00080172217 0.0005278702 0.00042579524 0.00031005478 0.000278299 0.00021020207 0.00021828212
0.00018970665 0.00017501226 0.0001421898 0.00014119271 0.00013189233 0.00013300263 0.000120015 0.00010825838
9.636145e-05 9.1814785e-05 8.2905935e-05 7.665547e-05 8.058456e-05 6.920589e-05 6.5486296e-05 6.5408596e-05
6.829055e-05 6.618048e-05 6.099634e-05 6.407748e-05 5.4494765e-05 5.192186e-05 5.1468858e-05 4.6939487e-05
4.7430265e-05 4.8696438e-05 4.9197075e-05 4.2031956e-05 4.233067e-05 4.0265113e-05 3.7375936e-05 3.7991813e-05
3.7370526e-05 3.639848e-05 3.5648976e-05 3.6323574e-05 3.5030665e-05 3.45421e-05 3.2023527e-05 3.403968e-05
3.385451e-05 3.0974057e-05 2.9414692e-05 3.0153178e-05 2.8855047e-05 2.7621516e-05 2.9419107e-05 2.7744447e-05
2.5006308e-05 2.6807053e-05 2.4672054e-05 2.4921781e-05 2.3265902e-05 2.3125445e-05 2.3774068e-05 2.258737e-05
2.166074e-05 2.152293e-05 2.0672413e-05 2.1805003e-05 2.0812506e-05 1.9711517e-05 1.9440815e-05 1.93037e-05
1.9206756e-05 1.832421e-05 1.9149224e-05 1.6952386e-05 1.7817707e-05 1.6762937e-05 1.9996529e-05 1.7155366e-05
1.6235945e-05 1.6952392e-05 1.6598866e-05 1.5177249e-05 1.680958e-05 1.4803461e-05 1.46570055e-05 1.4607021e-05
1.5161708e-05 1.3873116e-05 1.38015175e-05 1.4300767e-05 1.4825993e-05 1.236556e-05 1.342395e-05 1.3464866e-05
1.3012974e-05 1.3183253e-05 1.17971995e-05 1.2995573e-05 1.2390549e-05 1.2584585e-05 1.2608514e-05 1.2708549e-05
1.1145072e-05 1.21002495e-05 1.17618665e-05 1.1673898e-05 1.0937853e-05 1.1141535e-05 1.0364053e-05 1.1469612e-05
1.0192236e-05 1.0219023e-05 1.0228894e-05 1.0423818e-05 9.664478e-06 9.962682e-06 1.019786e-05 9.724526e-06
9.937725e-06 9.264396e-06 9.831835e-06 9.11306e-06 9.06213e-06 8.56306e-06 8.496545e-06 8.2757015e-06
8.4919975e-06 8.543599e-06 8.313069e-06 8.711564e-06 8.407585e-06 7.705378e-06 8.3323075e-06 7.4918235e-06
8.122635e-06 7.6015226e-06 7.043982e-06 7.836326e-06 7.401959e-06 7.207629e-06 7.1656086e-06 6.899134e-06
7.487663e-06 7.044574e-06 6.7391425e-06 6.657274e-06 6.6779858e-06 6.8366294e-06 6.6468124e-06 7.1291106e-06
6.4875376e-06 6.434589e-06 6.132168e-06 6.319185e-06 6.517563e-06 6.2385643e-06 5.445039e-06 5.774449e-06
5.5621445e-06 5.7874836e-06 5.6859362e-06 5.6644276e-06 5.591246e-06 5.2970827e-06 5.2592886e-06 5.1847605e-06
5.2192718e-06 5.340819e-06 5.2879714e-06 5.2043306e-06 4.701897e-06 4.915386e-06 4.8929073e-06 5.018922e-06
4.6408923e-06 4.777335e-06 4.753532e-06 4.788496e-06 4.755807e-06 4.4018534e-06 4.5932766e-06 4.535375e-06
4.592405e-06 4.4625167e-06 4.2998013e-06 4.794629e-06 4.1770245e-06 3.9997544e-06 4.581785e-06 4.384003e-06
4.0881255e-06 3.8424173e-06 4.194316e-06 3.914804e-06 3.894967e-06 4.000925e-06 3.8442618e-06 3.8963053e-06
3.836171e-06 3.783789e-06 3.7187885e-06 3.894683e-06 3.742895e-06 3.6769939e-06 3.4665788e-06 3.6280242e-06
3.4970953e-06 3.5036092e-06 3.6603287e-06 3.6500057e-06 3.1045238e-06 3.3802412e-06 3.2669689e-06 3.5894593e-06
3.2210994e-06 3.2408668e-06 3.066938e-06 3.1488564e-06 3.0460048e-06 3.0633087e-06 3.0497342e-06 3.052301e-06
2.8415714e-06 2.9836274e-06 2.8429347e-06 3.0077665e-06 2.9167602e-06 2.820996e-06 2.975605e-06 2.9537293e-06
2.7983367e-06 2.6600906e-06 2.8594031e-06 2.5710776e-06 2.651466e-06 2.680365e-06 2.6081227e-06 2.5799645e-06
2.802072e-06 2.6487419e-06 2.4533679e-06 2.501133e-06 2.426921e-06 2.4420265e-06 2.3569546e-06 2.298724e-06
2.4888957e-06 2.3962918e-06 2.397972e-06 2.445669e-06 2.4260253e-06 2.3216194e-06 2.337053e-06 2.1079331e-06
00000000: 8582 1d3b aa2a 523a c560 0a3a 453d df39
00000010: d98e a239 a9e8 9139 b069 5c39 a9e2 6439
00000020: feeb 4639 7f83 3739 c918 1539 210d 1439
00000030: 944c 0a39 9f76 0b39 90b0 fb38 c608 e338
00000040: a915 ca38 b08c c038 c9dd ad38 18c2 a038
00000050: 82ff a838 a122 9138 b055 8938 f92b 8938
00000060: 3637 8f38 60ca 8a38 52d6 7f38 5661 8638
00000070: 4f91 6438 acc6 5938 44e0 5738 e4e0 4438
00000080: dcef 4638 673f 4c38 f558 4e38 784b 3038
00000090: 368c 3138 56e2 2838 1bc4 1c38 6659 1f38
000000a0: 4cbe 1c38 92aa 1838 cc85 1538 245a 1838
000000b0: e4ed 1238 4ce1 1038 0051 0638 d4c5 0e38
000000c0: 01ff 0d38 24ea 0138 92bf f637 75f1 fc37
000000d0: be0d f237 c1b4 e737 0dc9 f637 bfbc e837
000000e0: a3c4 d137 b5df e037 d5f6 ce37 1e0f d137
000000f0: 252b c337 84fd c137 6c6e c737 027a bd37
00000100: 16b4 b537 248c b437 ab69 ad37 e3e9 b637
00000110: 8496 ae37 295a a537 d514 a337 61ee a137
00000120: 321e a137 f1b6 9937 a5a2 a037 f934 8e37
00000130: 3c77 9537 229e 8c37 38be a737 dee8 8f37
00000140: 6d32 8837 fc34 8e37 cb3d 8b37 caa1 7e37
00000150: 4c02 8d37 625c 7837 5ce7 7537 ad10 7537
00000160: 0a5f 7e37 94c0 6837 118d 6737 54ed 6f37
00000170: 28bd 7837 ad75 4f37 6d37 6137 29e7 6137
00000180: 4c52 5a37 a42d 5d37 96ec 4537 9007 5a37
00000190: 01e1 4f37 6222 5337 2889 5337 cd36 5537
000001a0: b8fb 3a37 2d02 4b37 d554 4537 03db 4337
000001b0: b981 3737 87ec 3a37 45e1 2d37 9c6d 4037
000001c0: 52ff 2a37 5f72 2b37 c49c 2b37 f5e1 2e37
000001d0: 9e24 2237 6525 2737 7a17 2b37 8526 2337
000001e0: 34ba 2637 476e 1b37 69f3 2437 4be4 1837
000001f0: 8d09 1837 10aa 0f37 628c 0e37 ded7 0a37
00000200: da78 0e37 7a56 0f37 5c78 0b37 e227 1237
00000210: 4d0e 0d37 5946 0137 fdca 0b37 4662 fb36
00000220: 7446 0837 9510 ff36 585b ec36 c478 0337
00000230: 585e f836 10d9 f136 1c70 f036 1c7f e736
00000240: 893e fb36 6e60 ec36 cb20 e236 8c61 df36
00000250: 7613 e036 3366 e536 af07 df36 9836 ef36
00000260: 86af d936 b3e8 d736 ecc2 cd36 6309 d436
00000270: 71b1 da36 dc54 d136 87b4 b636 24c2 c136
00000280: 75a2 ba36 1b32 c236 d2c9 be36 1011 be36
00000290: 709c bb36 98bd b136 f278 b036 c1f8 ad36
000002a0: 3421 af36 4935 b336 546f b136 dca0 ae36
000002b0: fdc4 9d36 d8ee a436 c12d a436 3668 a836
000002c0: f6b8 9b36 ff4c a036 8780 9f36 deac a036
000002d0: 1294 9f36 a2b3 9336 f21f 9a36 932e 9836
000002e0: 7518 9a36 babc 9536 0347 9036 8de1 a036
000002f0: 5e28 8c36 a135 8636 3cbd 9936 4d1a 9336
00000300: bb2c 8936 1dee 8036 e6bc 8c36 e95b 8336
00000310: 83b1 8236 af3f 8636 f5fd 8036 02bd 8236
00000320: 75b8 8036 00ed 7d36 4d90 7936 12af 8236
00000330: 722e 7b36 46c2 7636 5fa3 6836 fb78 7336
00000340: a4af 6a36 8c1f 6b36 f8a3 7536 9ff2 7436
00000350: 5057 5036 1ad8 6236 193e 5b36 71e2 7036
00000360: 112a 5836 ab7d 5936 98d1 4d36 f150 5336
00000370: f769 4c36 3e93 4d36 09aa 4c36 22d6 4c36
00000380: d3b1 3e36 543a 4836 3fc9 3e36 09d9 4936
00000390: 8fbd 4336 5850 3d36 81b0 4736 af38 4636
000003a0: 0fcb 3b36 0284 3236 2ce4 3f36 c78a 2c36
000003b0: d7ef 3136 52e0 3336 3507 2f36 7423 2d36
000003c0: 3b0b 3c36 0ac1 3136 8aa4 2436 23d9 2736
000003d0: 2fde 2236 b2e1 2336 2c2c 1e36 c743 1a36
000003e0: e706 2736 fbcf 2036 d8ec 2036 4620 2436
000003f0: ccce 2236 1ecd 1b36 44d6 1c36 0476 0d36
